…
100)\n","(?, 50, 50, 100)\n","(?, 56, 56, 100)\n","(?, 62, 62, 100)\n","(?, 68, 68, 100)\n","(?, 74, 74, 100)\n","(?, 80, 80, 100)\n","(?, 86, 86, 100)\n","(?, 92, 92, 100)\n","(?, 100, 100, 3)\n","Model: \"model_2\"\n","_________________________________________________________________\n","Layer (type)                 Output Shape              Param #   \n","=================================================================\n","input_3 (InputLayer)         [(None, 100, 100, 3)]     0         \n","_________________________________________________________________\n","conv2d_16 (Conv2D)           (None, 92, 92, 200)       48800     \n","_________________________________________________________________\n","dense_28 (Dense)             (None, 92, 92, 50)        10050     \n","_________________________________________________________________\n","conv2d_17 (Conv2D)           (None, 86, 86, 100)       245100    \n","_________________________________________________________________\n","dense_29 (Dense)             (None, 86, 86, 50)        5050      \n","_________________________________________________________________\n","conv2d_18 (Conv2D)           (None, 80, 80, 100)       245100    \n","_________________________________________________________________\n","dense_30 (Dense)             (None, 80, 80, 50)        5050      \n","_________________________________________________________________\n","conv2d_19 (Conv2D)           (None, 74, 74, 100)       245100    \n","_________________________________________________________________\n","dense_31 (Dense)             (None, 74, 74, 50)        5050      \n","_________________________________________________________________\n","conv2d_20 (Conv2D)           (None, 68, 68, 100)       245100    \n","_________________________________________________________________\n","dense_32 (Dense)             (None, 68, 68, 50)        5050      \n","_________________________________________________________________\n","conv2d_21 (Conv2D)           (None, 62, 62, 100)       245100    \n","_________________________________________________________________\n","dense_33 (Dense)             (None, 62, 62, 50)        5050      \n","_________________________________________________________________\n","conv2d_22 (Conv2D)           (None, 56, 56, 100)       245100    \n","_________________________________________________________________\n","dense_34 (Dense)             (None, 56, 56, 50)        5050      \n","_________________________________________________________________\n","conv2d_23 (Conv2D)           (None, 50, 50, 100)       245100    \n","_________________________________________________________________\n","dense_35 (Dense)             (None, 50, 50, 50)        5050      \n","_________________________________________________________________\n","conv2d_transpose_16 (Conv2DT (None, 56, 56, 100)       245100    \n","_________________________________________________________________\n","dense_36 (Dense)             (None, 56, 56, 50)        5050      \n","_________________________________________________________________\n","conv2d_transpose_17 (Conv2DT (None, 62, 62, 100)       245100    \n","_________________________________________________________________\n","dense_37 (Dense)             (None, 62, 62, 50)        5050      \n","_________________________________________________________________\n","conv2d_transpose_18 (Conv2DT (None, 68, 68, 100)       245100    \n","_________________________________________________________________\n","dense_38 (Dense)             (None, 68, 68, 50)        5050      \n","_________________________________________________________________\n","conv2d_transpose_19 (Conv2DT (None, 74, 74, 100)       245100    \n","_________________________________________________________________\n","dense_39 (Dense)             (None, 74, 74, 50)        5050      \n","_________________________________________________________________\n","conv2d_transpose_20 (Conv2DT (None, 80, 80, 100)       245100    \n","_________________________________________________________________\n","dense_40 (Dense)             (None, 80, 80, 50)        5050      \n","_________________________________________________________________\n","conv2d_transpose_21 (Conv2DT (None, 86, 86, 100)       245100    \n","_________________________________________________________________\n","dense_41 (Dense)             (None, 86, 86, 50)        5050      \n","_________________________________________________________________\n","conv2d_transpose_22 (Conv2DT (None, 92, 92, 100)       245100    \n","_________________________________________________________________\n","conv2d_transpose_23 (Conv2DT (None, 100, 100, 3)       24303     \n","=================================================================\n","Total params: 3,580,203\n","Trainable params: 3,580,203\n","Non-trainable params: 0\n","_________________________________________________________________\n","None\n","Train on 11561 samples, validate on 2369 samples\n","11561/11561 [==============================] - 254s 22ms/sample - loss: 0.9746 - acc: 0.7366 - val_l
…
