…
,"\n","prediction=autoencoder.predict(X)\n","#yo=autoencoder.predict(X1)\n","#plt.imshow(prediction[0])\n","#plt.show()\n","\n","\n"],"execution_count":0,"outputs":[{"output_type":"stream","text":["Model: \"model_2\"\n","_________________________________________________________________\n","Layer (type)                 Output Shape              Param #   \n","=================================================================\n","input_3 (InputLayer)         [(None, 512, 512, 3)]     0         \n","_________________________________________________________________\n","conv2d_4 (Conv2D)            (None, 512, 512, 50)      1400      \n","_________________________________________________________________\n","average_pooling2d_4 (Average (None, 256, 256, 50)      0         \n","_________________________________________________________________\n","conv2d_5 (Conv2D)            (None, 256, 256, 50)      22550     \n","_________________________________________________________________\n","average_pooling2d_5 (Average (None, 128, 128, 50)      0         \n","_________________________________________________________________\n","dense_4 (Dense)              (None, 128, 128, 10)      510       \n","_________________________________________________________________\n","dense_5 (Dense)              (None, 128, 128, 10)      110       \n","_________________________________________________________________\n","conv2d_transpose_6 (Conv2DTr (None, 128, 128, 50)      4550      \n","_________________________________________________________________\n","up_sampling2d_4 (UpSampling2 (None, 256, 256, 50)      0         \n","_________________________________________________________________\n","conv2d_transpose_7 (Conv2DTr (None, 256, 256, 50)      22550     \n","_________________________________________________________________\n","up_sampling2d_5 (UpSampling2 (None, 512, 512, 50)      0         \n","_________________________________________________________________\n","conv2d_transpose_8 (Conv2DTr (None, 512, 512, 3)       1353      \n","=================================================================\n","Total params: 53,023\n","Trainable params: 53,023\n","Non-trainable params: 0\n","_________________________________________________________________\n","None\n"],"name":"stdout"},{"output_type":"error","ename":"KeyboardInterrupt","evalue":"ignored","traceback":["\u001b[0;31m---------------------------------------------
…
